01/18/2023 12:17:27 - WARNING - root - Process rank: -1, device: cuda, n_gpu: 1, distributed training: False, 16-bits training: False
01/18/2023 12:17:29 - INFO - root - load_pretrained: resized variant: torch.Size([1, 197, 768]) to torch.Size([1, 785, 768])
01/18/2023 12:17:29 - INFO - root - ===>  Load pretrain weights from pretrain_weights/imagenet21k_ViT-B_16.npz  <====
01/18/2023 12:17:29 - INFO - root - ===> Create model successful  ... <===
01/18/2023 12:17:29 - INFO - root - ===> Model:	VisionTransformer(
  (part_head): Linear(in_features=768, out_features=200, bias=True)
  (transformer): Transformer(
    (embeddings): Embeddings(
      (patch_embeddings): Conv2d(3, 768, kernel_size=(16, 16), stride=(16, 16))
      (dropout): Dropout(p=0.1, inplace=False)
    )
    (encoder): Encoder(
      (layer): ModuleList(
        (0): Block(
          (attention_norm): LayerNorm((768,), eps=1e-06, elementwise_affine=True)
          (ffn_norm): LayerNorm((768,), eps=1e-06, elementwise_affine=True)
          (ffn): MLP(
            (fc1): Linear(in_features=768, out_features=3072, bias=True)
            (fc2): Linear(in_features=3072, out_features=768, bias=True)
            (act_fn): GELU()
            (dropout): Dropout(p=0.1, inplace=False)
          )
          (attn): Attention(
            (query): Linear(in_features=768, out_features=768, bias=True)
            (key): Linear(in_features=768, out_features=768, bias=True)
            (value): Linear(in_features=768, out_features=768, bias=True)
            (out): Linear(in_features=768, out_features=768, bias=True)
            (attn_dropout): Dropout(p=0.0, inplace=False)
            (proj_dropout): Dropout(p=0.0, inplace=False)
            (softmax): Softmax(dim=-1)
          )
        )
        (1): Block(
          (attention_norm): LayerNorm((768,), eps=1e-06, elementwise_affine=True)
          (ffn_norm): LayerNorm((768,), eps=1e-06, elementwise_affine=True)
          (ffn): MLP(
            (fc1): Linear(in_features=768, out_features=3072, bias=True)
            (fc2): Linear(in_features=3072, out_features=768, bias=True)
            (act_fn): GELU()
            (dropout): Dropout(p=0.1, inplace=False)
          )
          (attn): Attention(
            (query): Linear(in_features=768, out_features=768, bias=True)
            (key): Linear(in_features=768, out_features=768, bias=True)
            (value): Linear(in_features=768, out_features=768, bias=True)
            (out): Linear(in_features=768, out_features=768, bias=True)
            (attn_dropout): Dropout(p=0.0, inplace=False)
            (proj_dropout): Dropout(p=0.0, inplace=False)
            (softmax): Softmax(dim=-1)
          )
        )
        (2): Block(
          (attention_norm): LayerNorm((768,), eps=1e-06, elementwise_affine=True)
          (ffn_norm): LayerNorm((768,), eps=1e-06, elementwise_affine=True)
          (ffn): MLP(
            (fc1): Linear(in_features=768, out_features=3072, bias=True)
            (fc2): Linear(in_features=3072, out_features=768, bias=True)
            (act_fn): GELU()
            (dropout): Dropout(p=0.1, inplace=False)
          )
          (attn): Attention(
            (query): Linear(in_features=768, out_features=768, bias=True)
            (key): Linear(in_features=768, out_features=768, bias=True)
            (value): Linear(in_features=768, out_features=768, bias=True)
            (out): Linear(in_features=768, out_features=768, bias=True)
            (attn_dropout): Dropout(p=0.0, inplace=False)
            (proj_dropout): Dropout(p=0.0, inplace=False)
            (softmax): Softmax(dim=-1)
          )
        )
        (3): Block(
          (attention_norm): LayerNorm((768,), eps=1e-06, elementwise_affine=True)
          (ffn_norm): LayerNorm((768,), eps=1e-06, elementwise_affine=True)
          (ffn): MLP(
            (fc1): Linear(in_features=768, out_features=3072, bias=True)
            (fc2): Linear(in_features=3072, out_features=768, bias=True)
            (act_fn): GELU()
            (dropout): Dropout(p=0.1, inplace=False)
          )
          (attn): Attention(
            (query): Linear(in_features=768, out_features=768, bias=True)
            (key): Linear(in_features=768, out_features=768, bias=True)
            (value): Linear(in_features=768, out_features=768, bias=True)
            (out): Linear(in_features=768, out_features=768, bias=True)
            (attn_dropout): Dropout(p=0.0, inplace=False)
            (proj_dropout): Dropout(p=0.0, inplace=False)
            (softmax): Softmax(dim=-1)
          )
        )
        (4): Block(
          (attention_norm): LayerNorm((768,), eps=1e-06, elementwise_affine=True)
          (ffn_norm): LayerNorm((768,), eps=1e-06, elementwise_affine=True)
          (ffn): MLP(
            (fc1): Linear(in_features=768, out_features=3072, bias=True)
            (fc2): Linear(in_features=3072, out_features=768, bias=True)
            (act_fn): GELU()
            (dropout): Dropout(p=0.1, inplace=False)
          )
          (attn): Attention(
            (query): Linear(in_features=768, out_features=768, bias=True)
            (key): Linear(in_features=768, out_features=768, bias=True)
            (value): Linear(in_features=768, out_features=768, bias=True)
            (out): Linear(in_features=768, out_features=768, bias=True)
            (attn_dropout): Dropout(p=0.0, inplace=False)
            (proj_dropout): Dropout(p=0.0, inplace=False)
            (softmax): Softmax(dim=-1)
          )
        )
        (5): Block(
          (attention_norm): LayerNorm((768,), eps=1e-06, elementwise_affine=True)
          (ffn_norm): LayerNorm((768,), eps=1e-06, elementwise_affine=True)
          (ffn): MLP(
            (fc1): Linear(in_features=768, out_features=3072, bias=True)
            (fc2): Linear(in_features=3072, out_features=768, bias=True)
            (act_fn): GELU()
            (dropout): Dropout(p=0.1, inplace=False)
          )
          (attn): Attention(
            (query): Linear(in_features=768, out_features=768, bias=True)
            (key): Linear(in_features=768, out_features=768, bias=True)
            (value): Linear(in_features=768, out_features=768, bias=True)
            (out): Linear(in_features=768, out_features=768, bias=True)
            (attn_dropout): Dropout(p=0.0, inplace=False)
            (proj_dropout): Dropout(p=0.0, inplace=False)
            (softmax): Softmax(dim=-1)
          )
        )
        (6): Block(
          (attention_norm): LayerNorm((768,), eps=1e-06, elementwise_affine=True)
          (ffn_norm): LayerNorm((768,), eps=1e-06, elementwise_affine=True)
          (ffn): MLP(
            (fc1): Linear(in_features=768, out_features=3072, bias=True)
            (fc2): Linear(in_features=3072, out_features=768, bias=True)
            (act_fn): GELU()
            (dropout): Dropout(p=0.1, inplace=False)
          )
          (attn): Attention(
            (query): Linear(in_features=768, out_features=768, bias=True)
            (key): Linear(in_features=768, out_features=768, bias=True)
            (value): Linear(in_features=768, out_features=768, bias=True)
            (out): Linear(in_features=768, out_features=768, bias=True)
            (attn_dropout): Dropout(p=0.0, inplace=False)
            (proj_dropout): Dropout(p=0.0, inplace=False)
            (softmax): Softmax(dim=-1)
          )
        )
        (7): Block(
          (attention_norm): LayerNorm((768,), eps=1e-06, elementwise_affine=True)
          (ffn_norm): LayerNorm((768,), eps=1e-06, elementwise_affine=True)
          (ffn): MLP(
            (fc1): Linear(in_features=768, out_features=3072, bias=True)
            (fc2): Linear(in_features=3072, out_features=768, bias=True)
            (act_fn): GELU()
            (dropout): Dropout(p=0.1, inplace=False)
          )
          (attn): Attention(
            (query): Linear(in_features=768, out_features=768, bias=True)
            (key): Linear(in_features=768, out_features=768, bias=True)
            (value): Linear(in_features=768, out_features=768, bias=True)
            (out): Linear(in_features=768, out_features=768, bias=True)
            (attn_dropout): Dropout(p=0.0, inplace=False)
            (proj_dropout): Dropout(p=0.0, inplace=False)
            (softmax): Softmax(dim=-1)
          )
        )
        (8): Block(
          (attention_norm): LayerNorm((768,), eps=1e-06, elementwise_affine=True)
          (ffn_norm): LayerNorm((768,), eps=1e-06, elementwise_affine=True)
          (ffn): MLP(
            (fc1): Linear(in_features=768, out_features=3072, bias=True)
            (fc2): Linear(in_features=3072, out_features=768, bias=True)
            (act_fn): GELU()
            (dropout): Dropout(p=0.1, inplace=False)
          )
          (attn): Attention(
            (query): Linear(in_features=768, out_features=768, bias=True)
            (key): Linear(in_features=768, out_features=768, bias=True)
            (value): Linear(in_features=768, out_features=768, bias=True)
            (out): Linear(in_features=768, out_features=768, bias=True)
            (attn_dropout): Dropout(p=0.0, inplace=False)
            (proj_dropout): Dropout(p=0.0, inplace=False)
            (softmax): Softmax(dim=-1)
          )
        )
        (9): Block(
          (attention_norm): LayerNorm((768,), eps=1e-06, elementwise_affine=True)
          (ffn_norm): LayerNorm((768,), eps=1e-06, elementwise_affine=True)
          (ffn): MLP(
            (fc1): Linear(in_features=768, out_features=3072, bias=True)
            (fc2): Linear(in_features=3072, out_features=768, bias=True)
            (act_fn): GELU()
            (dropout): Dropout(p=0.1, inplace=False)
          )
          (attn): Attention(
            (query): Linear(in_features=768, out_features=768, bias=True)
            (key): Linear(in_features=768, out_features=768, bias=True)
            (value): Linear(in_features=768, out_features=768, bias=True)
            (out): Linear(in_features=768, out_features=768, bias=True)
            (attn_dropout): Dropout(p=0.0, inplace=False)
            (proj_dropout): Dropout(p=0.0, inplace=False)
            (softmax): Softmax(dim=-1)
          )
        )
        (10): Block(
          (attention_norm): LayerNorm((768,), eps=1e-06, elementwise_affine=True)
          (ffn_norm): LayerNorm((768,), eps=1e-06, elementwise_affine=True)
          (ffn): MLP(
            (fc1): Linear(in_features=768, out_features=3072, bias=True)
            (fc2): Linear(in_features=3072, out_features=768, bias=True)
            (act_fn): GELU()
            (dropout): Dropout(p=0.1, inplace=False)
          )
          (attn): Attention(
            (query): Linear(in_features=768, out_features=768, bias=True)
            (key): Linear(in_features=768, out_features=768, bias=True)
            (value): Linear(in_features=768, out_features=768, bias=True)
            (out): Linear(in_features=768, out_features=768, bias=True)
            (attn_dropout): Dropout(p=0.0, inplace=False)
            (proj_dropout): Dropout(p=0.0, inplace=False)
            (softmax): Softmax(dim=-1)
          )
        )
      )
      (part_select): Part_Attention()
      (part_layer): Block(
        (attention_norm): LayerNorm((768,), eps=1e-06, elementwise_affine=True)
        (ffn_norm): LayerNorm((768,), eps=1e-06, elementwise_affine=True)
        (ffn): MLP(
          (fc1): Linear(in_features=768, out_features=3072, bias=True)
          (fc2): Linear(in_features=3072, out_features=768, bias=True)
          (act_fn): GELU()
          (dropout): Dropout(p=0.1, inplace=False)
        )
        (attn): Attention(
          (query): Linear(in_features=768, out_features=768, bias=True)
          (key): Linear(in_features=768, out_features=768, bias=True)
          (value): Linear(in_features=768, out_features=768, bias=True)
          (out): Linear(in_features=768, out_features=768, bias=True)
          (attn_dropout): Dropout(p=0.0, inplace=False)
          (proj_dropout): Dropout(p=0.0, inplace=False)
          (softmax): Softmax(dim=-1)
        )
      )
      (part_norm): LayerNorm((768,), eps=1e-06, elementwise_affine=True)
    )
  )
)  ... <===
01/18/2023 12:17:33 - INFO - root - ===> Model parameters :	 86.40404 M ... <===
01/18/2023 12:17:33 - INFO - root - ===> Create transforms successful  ... <===
01/18/2023 12:17:33 - INFO - root - ===> train transforms:	Compose(
    Resize(size=(600, 600), interpolation=bilinear, max_size=None, antialias=None)
    RandomCrop(size=(448, 448), padding=None)
…
